tests/data/_dictionary_lrsdl/LRSDL_reference_model_legacy.npz (npz, 27058 bytes, 9 tensors)

lambd f8 []
00000000: 7b14 ae47 e17a 843f
0.01

lambd2 f8 []
00000000: 7b14 ae47 e17a 843f
0.01

eta f8 []
00000000: 2d43 1ceb e236 1a3f
0.0001

D f8 [15, 8]
00000000: 32ed 4078 ad2a 073c d486 393b 4796 13bc
00000010: 42b1 8785 cbb2 133c 67cf 58fe 696f d6bb
00000020: 0423 a3a8 9bc7 fc3b d0b2 3d73 c6cb ff3b
00000030: bdde bfc2 eb5a 03bc 5900 186b b288 03bc
00000040: fe96 00c9 7800 d63f 0c78 8315 cb56 d83f
00000050: 3cbf 5609 e6e9 d0bf 7ff5 02fe f14e c63f
00000060: de8f 9143 2894 d7bf b36a 2ea9 2994 d7bf
00000070: abd1 ad54 2694 d73f c03f d632 fe93 d73f
00000080: 6191 392b a317 b03f bbcd 253d 152b cd3f
00000090: 6a79 c82d 809a cfbf b252 be0b f09b d33f
000000a0: 1583 e64f ede6 b03f cd44 d339 d2e8 b03f
000000b0: 0371 b9f4 0ae7 b0bf 8cdf af44 7ae2 b0bf
000000c0: 1036 2bd3 3bbf dabf cc35 4df9 f803 c7bf
000000d0: aed2 2c3f 7229 953f 4f4f eb7d 8430 d43f
000000e0: dde9 0eae daf8 d63f db10 83cc 60f9 d63f
000000f0: a376 ae71 e2f8 d6bf bfd3 e3cf 7bf7 d6bf
00000100: 9af0 e880 bced d4bf 7adc 69cf 8b9d c5bf
00000110: efee afc3 30e9 cd3f 0891 c9aa b278 c43f
00000120: d4d2 6a00 cade bfbf 3216 2393 e9de bfbf
00000130: a5d5 e36a c4de bf3f 36a0 956c a0de bf3f
00000140: eff7 ec4c 3f11 cd3f 6808 3e21 b362 ca3f
00000150: 91b0 5dc8 be63 c83f a28a f372 540b b3bf
00000160: c1ed 1e78 052c d5bf 1cdd 96d9 362c d5bf
00000170: 4415 2f3f 062c d53f a3bb 4447 8b2b d53f
00000180: 6bf8 946e 7349 de3f 6b26 1fe9 4005 c83f
00000190: e221 f118 d869 913f d0d6 2e23 0877 d0bf
000001a0: ed0b cad1 1787 c73f 2cd1 38c4 d186 c73f
000001b0: a785 97c7 1c87 c7bf 8c6c f4c0 8387 c7bf
000001c0: 7fb1 7e61 047a c03f 1487 f5fc 4b3f d4bf
000001d0: d767 6854 c102 b5bf abec 0f64 b182 d6bf
000001e0: 4d75 436d 41ac d23f dc9b 15ae d5ab d23f
000001f0: a0a3 2c42 43ac d2bf b33c b58c 1bad d2bf
00000200: f47c 9bfc f31a d3bf bf5e 193a 77a4 dbbf
00000210: 72ad 2409 ce48 bebf 6ca3 0e7f b5c5 d5bf
00000220: 3ac1 011b 36f3 cebf bdd1 6a3f 75f3 cebf
00000230: 5880 4a65 40f3 ce3f 1447 508b 7af2 ce3f
00000240: 36ee 74f0 81ce d1bf dd8e ba3c 88b3 b93f
00000250: 2215 5583 385f c7bf b687 ff45 d345 bdbf
00000260: 6ebd d8a3 5bed cfbf c546 8443 02ec cfbf
00000270: f3c5 b6c4 76ed cf3f 4c71 e24d e9ef cf3f
00000280: 6913 a09f 98bc b53f a16f ad2c 3e94 d73f
00000290: 85c3 e238 3cc3 c8bf 2704 03e0 43ee d23f
000002a0: ebce 3948 2757 d23f 9d36 0f11 2d57 d23f
000002b0: 6ab5 de82 1957 d2bf ccfe beac 6357 d2bf
000002c0: ca52 0984 8403 d03f 2513 d6ac 279d a63f
000002d0: 5f39 c042 46c8 80bf ed4c 79e7 9550 e03f
000002e0: 480a 4539 9e0b c93f 23a8 7e69 e008 c93f
000002f0: bacb 067a 9f0b c9bf 05f4 a209 f311 c9bf
00000300: bc37 b8ee cc22 87bf b714 c64f 34c3 a23f
00000310: dae8 fc96 8583 d53f 3344 9f22 1ec5 cf3f
00000320: a3e8 8c2c 94b3 d4bf c813 4cc3 35b4 d4bf
00000330: 650f 6ad4 8eb3 d43f 411b 5079 54b2 d43f
00000340: 140d 0a94 8787 d0bf b8df 74b9 ed05 de3f
00000350: ab1f b632 835d e33f bd3f 36ad 7aff bdbf
00000360: afdb 2605 a57a c1bf a9ef 0c5e cd78 c1bf
00000370: 6b14 541d d27a c13f c1af 7034 637e c13f
00000380: 2894 7f53 cc3e a0bf 3caa 2541 9f64 b83f
00000390: fb41 46d3 521a dd3f 2b24 5dde 0cf3 aebf
000003a0: e083 c3b1 d96e d63f 3435 619d 5d6f d63f
000003b0: 63e4 bc2b c96e d6bf 0319 f83d 166e d6bf
1.5698372938885903e-19 -2.654536801430318e-19 2.6696334478431262e-19 -1.9003362965998214e-20 9.750948053105663e-20 1.0772902772192239e-19 -1.311556652359937e-19 -1.3236734603193703e-19
0.3437787974274754 0.3802974424451129 -0.2642760363769303 0.17428421881588105 -0.36841780279632796 -0.3684181358491216 0.368417341894452 0.36840777363340393
0.06286067776961125 0.2278772877285585 -0.246902487139731 0.30639268061467384 0.0660236663884571 0.06605256950139733 -0.06602543329922032 -0.06595577408722714
-0.4179219782061816 -0.17980873272828857 0.020665917497540924 0.3154612760238153 0.3589388561046272 0.3589708325564637 -0.3589407072230221 -0.3588552026915827
-0.3270102747808409 -0.1688704264413195 0.23367890887299533 0.15993340815760626 -0.12449324140727508 -0.12449512331212345 0.12449290856951352 0.12449076319683247
0.2270888448346677 0.20613707659873914 0.1905439833020677 -0.07439163023404174 -0.3308118508391225 -0.33082362412410915 0.330812036231084 0.33078271827519695
0.473233087530281 0.18766032584089784 0.017005325815519508 -0.2572651237090726 0.1838102125512643 0.1838018615832281 -0.18381080384919565 -0.183823079315378
0.12872366676800692 -0.3163633318236958 -0.08207329092729708 -0.3517268635911914 0.29176364584221376 0.29173795700483907 -0.29176408254948605 -0.29181565037738294
-0.2985200850361729 -0.4319131915449183 -0.11829841349815753 -0.3401921978752884 -0.24179722136205745 -0.2418047485022167 0.24179844804621342 0.24177486231251832
-0.27822922212701273 0.10039569361338914 -0.18259340679848274 -0.11434669932307781 -0.24943109035801164 -0.2493899182959948 0.2494343243138669 0.24950901320415608
0.08490899941541631 0.36842302668605426 -0.193458106781261 0.29579254985952946 0.2865694241838656 0.2865708033176391 -0.2865661409403716 -0.28658382291540074
0.25021469968968957 0.044167747352764665 -0.008194493209910446 0.509837104890179 0.19566705509540072 0.1955833926306819 -0.19566720445945213 -0.19586027117284757
-0.011296845469612175 0.03664554094124511 0.3361524557582364 0.2482030552914992 -0.3234606204092733 -0.32349914619436193 0.32345934623321276 0.32338439795460167
-0.2582720704742354 0.46911185370435815 0.6051650991876064 -0.11717955330664061 -0.13655531646301486 -0.13649909107504968 0.13656069213917318 0.1366695409827781
-0.03172911185519239 0.09528537121301722 0.4547316611506457 -0.0604480763855196 0.35051576957454067 0.35054722184289067 -0.3505118300559557 -0.35046917010949147

X f8 [8, 100]
00000000: 45a4 9db3 d071 babf 2754 6636 3849 cebf
00000010: 441c 928f d613 0140 143e 39b7 f190 f53f
00000020: 770c de59 27fe cfbf e0ac 20ce 9b3a a63f
00000030: 0000 0000 0000 0000 0b2c dcfb 608a 0040
00000040: d037 869a 918b be3f a2cc 12a3 6da2 f53f
00000050: 0000 0000 0000 0000 6a70 ce9a d2ac b53f
00000060: a89f 864b 2599 c63f 4275 94ac f568 5dbf
00000070: fc40 0884 a2e3 fd3f c709 d1b9 b331 e03f
00000080: 8e98 d636 3124 aebf 0c6b 3650 c88a c8bf
00000090: 23c9 ccdd 2fb0 cebf 7f63 0c9b 753b f83f
000000a0: 615d 0bef 25e1 c4bf d4b4 1bbe 58dc d83f
000000b0: 0000 0000 0000 0000 f210 46a0 eb07 ccbf
000000c0: 0000 0000 0000 0000 b23a 0ad7 4d6f fe3f
000000d0: aeef 576a fb9f d4bf 7130 cee0 375d 96bf
000000e0: b43d 17f5 5c07 8e3f 0a17 fa82 70d1 e03f
000000f0: e58d 7321 5118 a8bf ca94 4f5d 65f3 c63f
00000100: 0000 0000 0000 0000 e305 35f2 294b f73f
00000110: d1de 3781 f610 f23f e975 883e 0e53 ccbf
00000120: 0000 0000 0000 0000 41c6 aa58 78d6 c1bf
00000130: 1239 e772 d0b5 793f 9154 743d 25d5 cf3f
00000140: 34d2 4d93 8c26 9bbf 83d6 ec6e 8cec bfbf
00000150: 4360 6480 8b53 c03f 0954 a994 471b c8bf
00000160: ecb5 dbc9 830a f13f 9295 9c50 60dc d5bf
00000170: e718 d0ff 123f f93f b973 cdea bbc8 a6bf
00000180: 0000 0000 0000 0000 ee7d ba88 a978 c13f
00000190: 0000 0000 0000 0000 0000 0000 0000 0000
000001a0: 0000 0000 0000 0000 0000 0000 0000 0000
000001b0: 0000 0000 0000 0000 0000 0000 0000 0000
000001c0: 0000 0000 0000 0000 0000 0000 0000 0000
000001d0: 0000 0000 0000 0000 0000 0000 0000 0000
000001e0: 0000 0000 0000 0000 0000 0000 0000 0000
000001f0: 0000 0000 0000 0000 0000 0000 0000 0000
00000200: 0000 0000 0000 0000 0000 0000 0000 0000
00000210: 0000 0000 0000 0000 0000 0000 0000 0000
00000220: 0000 0000 0000 0000 0000 0000 0000 0000
00000230: 0000 0000 0000 0000 0000 0000 0000 0000
00000240: 0000 0000 0000 0000 0000 0000 0000 0000
00000250: 0000 0000 0000 0000 0000 0000 0000 0000
00000260: 0000 0000 0000 0000 0000 0000 0000 0000
00000270: 0000 0000 0000 0000 0000 0000 0000 0000
00000280: 0000 0000 0000 0000 0000 0000 0000 0000
00000290: 0000 0000 0000 0000 0000 0000 0000 0000
000002a0: 0000 0000 0000 0000 0000 0000 0000 0000
000002b0: 0000 0000 0000 0000 0000 0000 0000 0000
000002c0: 0000 0000 0000 0000 0000 0000 0000 0000
000002d0: 0000 0000 0000 0000 0000 0000 0000 0000
000002e0: 0000 0000 0000 0000 0000 0000 0000 0000
000002f0: 0000 0000 0000 0000 0000 0000 0000 0000
00000300: 0000 0000 0000 0000 0000 0000 0000 0000
00000310: 0000 0000 0000 0000 0000 0000 0000 0000
00000320: 3d4d d25f ceb3 b9bf 5cb4 a624 c25c bcbf
00000330: c50f 8fa9 3816 c43f fc04 06ff fb62 ce3f
00000340: fb8b 41bb e123 9bbf b893 abd1 ab2e d53f
00000350: 0000 0000 0000 0000 3007 9e73 cd58 dc3f
00000360: e0d5 8dd8 23da a7bf 3501 6edf d38c f03f
00000370: 3fc7 5674 4869 d73f de79 3006 da8d a83f
00000380: 79de d6fc 8972 d63f 98af d7c4 3cc6 db3f
00000390: 3539 1fc6 4e8e e43f 9cad 2f15 4ac8 f63f
000003a0: 8d66 d56f 8b8e dd3f 2d91 f6b5 0ae7 c2bf
000003b0: a05e 064a 5dcd b9bf 38b4 0288 9626 cb3f
000003c0: 9e52 2f52 d219 e03f f1d0 ed15 6a41 d53f
000003d0: cee0 af38 cb4b d83f 0d3c ce6b b83d bb3f
000003e0: 01c7 f67a b580 d83f 4922 d80b 6901 c33f
000003f0: 9166 e65c 3fdb e13f aea1 e7fd 9566 a6bf
00000400: 5df3 3d7c 84ba cf3f bde9 6f13 06b5 f63f
00000410: 2590 c9ff e02d e33f 1d8d a4fb f61d f73f
00000420: c66b 75b6 aa7d ae3f 867c fc8b 1dd9 ee3f
00000430: a9a3 abbf ff09 d13f c877 2587 2ecc e03f
00000440: 0c27 8d75 5539 db3f af46 ff74 2b83 bfbf
00000450: c96e cdd8 6c44 d43f ca39 9a86 12df d53f
00000460: 320c b3e4 6229 d03f 4374 4463 69ed bcbf
00000470: 8f33 b28e 7c60 d63f a483 c0e1 c5ec c2bf
00000480: d4e2 6471 ad5f f33f 9df3 425a 2e27 e23f
00000490: f5de c723 f8ce c93f a7e8 7b8f 39c5 e23f
000004a0: c649 377b 1583 bd3f 7afe e888 61f3 f63f
000004b0: 0000 0000 0000 0000 0000 0000 0000 0000
000004c0: 0000 0000 0000 0000 0000 0000 0000 0000
000004d0: 0000 0000 0000 0000 0000 0000 0000 0000
000004e0: 0000 0000 0000 0000 0000 0000 0000 0000
000004f0: 0000 0000 0000 0000 0000 0000 0000 0000
00000500: 0000 0000 0000 0000 0000 0000 0000 0000
00000510: 0000 0000 0000 0000 0000 0000 0000 0000
00000520: 0000 0000 0000 0000 0000 0000 0000 0000
00000530: 0000 0000 0000 0000 0000 0000 0000 0000
00000540: 0000 0000 0000 0000 0000 0000 0000 0000
00000550: 0000 0000 0000 0000 0000 0000 0000 0000
00000560: 0000 0000 0000 0000 0000 0000 0000 0000
00000570: 0000 0000 0000 0000 0000 0000 0000 0000
00000580: 0000 0000 0000 0000 0000 0000 0000 0000
00000590: 0000 0000 0000 0000 0000 0000 0000 0000
000005a0: 0000 0000 0000 0000 0000 0000 0000 0000
000005b0: 0000 0000 0000 0000 0000 0000 0000 0000
000005c0: 0000 0000 0000 0000 0000 0000 0000 0000
000005d0: 0000 0000 0000 0000 0000 0000 0000 0000
000005e0: 0000 0000 0000 0000 0000 0000 0000 0000
000005f0: 0000 0000 0000 0000 0000 0000 0000 0000
00000600: 0000 0000 0000 0000 0000 0000 0000 0000
00000610: 0000 0000 0000 0000 0000 0000 0000 0000
00000620: 0000 0000 0000 0000 0000 0000 0000 0000
00000630: 0000 0000 0000 0000 0000 0000 0000 0000
00000640: ba5c 5c5f 6026 edbf 8437 6e5a ee47 d4bf
00000650: 0dec 7960 dfc8 e5bf b394 ae60 a965 dcbf
00000660: 29de 3caa 98da a9bf 9153 24f2 bf19 b63f
00000670: 4e70 b1a7 a863 eebf fa15 18f7 5b8c dfbf
00000680: 0000 0000 0000 0000 e47d 7fdd 2d9a c0bf
00000690: 99a7 6af3 4c59 d8bf 0000 0000 0000 0000
000006a0: ac21 69bb 5941 8f3f 694c 0cc9 e481 9bbf
000006b0: 626d fd5f 3403 d7bf 0000 0000 0000 0000
000006c0: 0000 0000 0000 0000 aab8 4675 17b2 e4bf
000006d0: 127a 2b6d 2739 d1bf 748a c532 aa71 e0bf
000006e0: 0000 0000 0000 0000 2131 c3ae d465 6ebf
000006f0: 0000 0000 0000 0000 3fa4 b81f 9285 c43f
00000700: 562e 11a4 a9e4 d3bf 449a 3faa 84b0 e5bf
00000710: 4bcf 5efc a003 bb3f 2a4c f291 d116 eebf
00000720: c04c 0c58 a1f7 e5bf 0000 0000 0000 0000
00000730: 0000 0000 0000 0000 0000 0000 0000 0000
00000740: 8ac0 a047 ad30 eebf 09d5 c697 775a c5bf
00000750: ad98 904a 34aa d7bf 169c 5371 748d 8c3f
00000760: 15d4 739e 3f5b b5bf ff9e 951c 0342 ebbf
00000770: 220e 330c 8401 e1bf 03a7 5f52 8238 843f
00000780: 2544 8821 45de c93f d5aa 011b f43e ecbf
00000790: 2a08 644e 5a9a a03f b2ea ba8b a531 e5bf
000007a0: 5cae 9511 b58b a7bf e403 bf7f 978d c83f
000007b0: e40b 1d26 708b e1bf 0000 0000 0000 0000
000007c0: ded7 334f c0ee ecbf 0000 0000 0000 0000
000007d0: 0000 0000 0000 0000 0000 0000 0000 0000
000007e0: 0000 0000 0000 0000 0000 0000 0000 0000
000007f0: 0000 0000 0000 0000 0000 0000 0000 0000
-0.10329918275023527 -0.23660948425518422 2.13468658604282 1.3478867680713664 -0.24994365585380127 0.04341589823919789 0.0 2.0675677944723296
0.11931715033116963 1.3521553392463734 0.0 0.08466831473782724 0.17654863536631393 -0.0017950438653494137 1.8680749089726865 0.506067145274124
-0.0588698749009363 -0.19173530499104918 -0.23975179987025638 1.5145164543702945 -0.16312097713555843 0.38844889226204526 0.0 -0.21899171186317506
0.0 1.902173843383633 -0.3222645319472076 -0.021839974494966833 0.014662481526925265 0.5255663450377324 -0.047060523351117024 0.17930285507387672
0.0 1.455850549813811 1.1291413352573054 -0.22128465703364888 0.0 -0.13935760812232625 0.006276907208713449 0.24869218350128056
-0.026514240732881514 -0.1247031946957922 0.12754958886285025 -0.18833250769480994 1.0650670895660097 -0.34157569763404994 1.5778989784899353 -0.04450022927515058
0.0 0.13649481941409597 0.0 0.0 0.0 0.0 0.0 0.0
0.0 0.0 0.0 0.0 0.0 0.0 0.0 0.0
0.0 0.0 0.0 0.0 0.0 0.0 0.0 0.0
0.0 0.0 0.0 0.0 0.0 0.0 0.0 0.0
0.0 0.0 0.0 0.0 0.0 0.0 0.0 0.0
0.0 0.0 0.0 0.0 0.0 0.0 0.0 0.0
0.0 0.0 0.0 0.0 -0.10039987410919067 -0.11079038042835648 0.15692814139594993 0.23739576294250486
-0.026504065565301698 0.33097358203513805 0.0 0.4429200772357147 -0.04658615129930488 1.0343817451212776 0.3658009658930616 0.04795724225572305
0.3507409066328147 0.4339744493761315 0.64237154670426 1.423898775824319 0.4618252365231477 -0.14767583737296644 -0.10078986222503739 0.2121151126970362
0.503152046696943 0.33211757794857905 0.37962608848421275 0.1064105284878993 0.3828557682819423 0.14848054006894731 0.5580136122182059 -0.04375141834663353
0.24787956301215788 1.4191952475799632 0.5993504520270149 1.4448156194492363 0.059552511952197615 0.9640033468348441 0.2662352916509528 0.5249245299889873
0.42537437896372476 -0.12309524160743977 0.3166763417445791 0.3417402567364688 0.2525260194199205 -0.11299761460800632 0.3496390717999071 -0.14785073779151248
1.2108587674576272 0.5672828448219779 0.20162870165926675 0.5865752985403291 0.11528143175318126 1.4344191883136816 0.0 0.0
0.0 0.0 0.0 0.0 0.0 0.0 0.0 0.0
0.0 0.0 0.0 0.0 0.0 0.0 0.0 0.0
0.0 0.0 0.0 0.0 0.0 0.0 0.0 0.0
0.0 0.0 0.0 0.0 0.0 0.0 0.0 0.0
0.0 0.0 0.0 0.0 0.0 0.0 0.0 0.0
0.0 0.0 0.0 0.0 0.0 0.0 0.0 0.0
-0.9109346258655002 -0.3168903239355745 -0.6807705768873135 -0.4437049335632068 -0.05049588277909962 0.08633041059176906 -0.9496653819328544 -0.49294184808999797
0.0 -0.12970517459233044 -0.3804504754176548 0.0 0.015261364967174305 -0.026862692614554016 -0.35957059263247093 0.0
0.0 -0.6467397013236866 -0.2691134039031634 -0.5138751021989507 0.0 -0.003710666080314465 0.0 0.1603262572182604
-0.3108314611642745 -0.677797634617328 0.10552412186990272 -0.9402854776875575 -0.6864783019722367 0.0 0.0 0.0
-0.9434420012458002 -0.16682333861323453 -0.3697634437725224 0.013941678722813971 -0.0834235917898954 -0.8518081243791754 -0.5314350355406001 0.009873407496303615
0.20209564339941824 -0.8826847579451519 0.03242761809271173 -0.6623103837112778 -0.045987757107323474 0.19182103860478528 -0.5482712501910751 0.0
-0.9041444346355509 0.0 0.0 0.0 0.0 0.0 0.0 0.0

Y (column-major) f8 [15, 100]
00000000: 0000 0000 0000 0000 f98e 8025 f3c8 e83f
00000010: 087b c34b d55a ef3f d39f 348e 2ec3 dd3f
00000020: 399d 90bb d50e d9bf c9ab f162 36bb eebf
00000030: 173d 88f0 3059 eabf c945 608f a5cf b4bf
00000040: c065 4620 b50e e73f df57 a6d6 51c5 ef3f
00000050: e0c7 3ce9 8b22 e13f 5286 2041 0630 d4bf
00000060: c18f f69a 83e7 edbf 587e 6440 c8bc ebbf
00000070: 6455 d069 03be c4bf 0000 0000 0000 0000
00000080: b531 5132 803a ea3f 2c54 9a3a 2b0d ee3f
00000090: db3f 8a77 f667 d03f 52d4 9c1e 1ba7 e4bf
000000a0: 90dc 70d1 b4dd efbf d526 ca7d 3eb7 dfbf
000000b0: a1e6 48be c064 db3f 0d46 637e 118d ef3f
000000c0: cea0 49d0 f573 e63f 427f 5033 454d c7bf
000000d0: 00dc b5d6 a420 edbf 089f da40 2a8c ebbf
000000e0: eb42 4310 3e7b b3bf bd0e fe4a e5c1 e83f
000000f0: 0000 0000 0000 0000 6d94 597f a4c7 ee3f
00000100: 3910 5b6a 40d6 e03f c1f4 cc23 e391 e5bf
00000110: 6581 28f7 c8a2 ecbf 2a87 c697 779f c73f
00000120: 5a53 d4f9 cadd ef3f 5e31 2c7f 120d d73f
00000130: e99d e525 d18f e9bf 8db0 d08d 1382 e9bf
00000140: 2cde b702 9637 d73f 4d50 4215 aedb ef3f
00000150: bac6 5311 d145 c73f ad23 d19e eeac ecbf
00000160: 6219 5b74 0681 e5bf 0000 0000 0000 0000
00000170: f2de 7408 f4e5 ed3f b630 5f87 4250 e53f
00000180: 2694 85db b768 ddbf 0829 1174 c0cb efbf
00000190: 5502 7b29 d8d8 cfbf 5f3f 23a1 c61e ea3f
000001a0: d190 0041 0095 ea3f e184 280f d4ae ccbf
000001b0: eada 5942 9eb1 efbf 3e00 9d74 77d8 debf
000001c0: 7481 9158 0cb3 e43f bfe1 ae9b c12d ee3f
000001d0: fb00 8057 ba0c 9a3f 7f98 3937 3299 edbf
000001e0: 0000 0000 0000 0000 7b3c d0d5 5ac3 ea3f
000001f0: 4b8a eda2 d457 ed3f e8c1 22dd 7ca2 c53f
00000200: f033 ffe5 ba69 e7bf 5275 60f1 2614 efbf
00000210: 79e2 d560 cd52 d5bf 90b4 f878 a263 e33f
00000220: 62ee 21af 88eb ef3f 873c 365a 4837 df3f
00000230: ac2d 5166 6b9d ddbf 1607 0043 c7d7 efbf
00000240: e4f2 b6fc e71a e4bf 189f 88bc 6999 d33f
00000250: 2d66 3534 74d9 ee3f 0000 0000 0000 0000
00000260: e80f e794 a97b ec3f 55f7 d572 b3f6 e93f
00000270: 37e3 cfd6 7f43 c3bf 11ef 0a93 865a eebf
00000280: 6f1a 4d40 55da e6bf 5d93 3ee2 540b d33f
00000290: dd74 b9f2 6188 ef3f d741 11fd b238 e33f
000002a0: 29e7 737a db05 dcbf 1321 9c6e 5bfe efbf
000002b0: 799b b497 f34d debf 7543 77f4 7b2e e23f
000002c0: 295f 870f c3b9 ef3f 4e01 3aea c879 d53f
000002d0: 0000 0000 0000 0000 0397 3936 3207 e83f
000002e0: 89c4 4454 ffbc ef3f c0c8 b822 f5e4 e13f
000002f0: e757 8c3c 3234 d0bf 1633 b517 9898 ecbf
00000300: 134a 22e1 88ab edbf 4bd2 0fa6 6730 d5bf
00000310: 6927 eaa0 135a df3f b750 bbb3 f24c ef3f
00000320: f039 c18e 1cab e93f 0e93 5618 a9d5 b43f
00000330: 3b6a ff63 783a e6bf 67c7 f515 24f7 efbf
00000340: 99ab 7ff2 7bfe e3bf 0000 0000 0000 0000
00000350: 1958 c571 d44a ef3f 78c3 8f67 b82d da3f
00000360: 789d f4be 31d1 e9bf 6d6f 45ad 6de3 e7bf
00000370: f866 98fa 53a6 df3f 1543 3ab5 fe81 ee3f
00000380: cb5e 04a2 7d82 b8bf 2707 19c7 10ca efbf
00000390: 365d ff70 8a77 d4bf b277 ed0b 3d82 eb3f
000003a0: 097c 292c 7abd e53f 58eb 3a79 3f6a e2bf
000003b0: 59b5 22ee 6771 edbf ee8f cfdb aa65 c83f
000003c0: 0000 0000 0000 0000 094d 4133 b9ee ef3f
000003d0: c185 d260 0c95 c0bf d33b 31a7 f264 efbf
000003e0: 1f96 ae90 4671 d03f ecf4 df00 b853 ee3f
000003f0: f602 d8a8 1551 d8bf c0f2 221f a4bf ecbf
00000400: fbda 5617 fac7 df3f a0ce 7f6f 86af ea3f
00000410: 6f76 4f93 df5a e3bf 60ee 008c 452c e8bf
00000420: 141a d4e0 3f7e e63f d66b fcd3 b840 e53f
00000430: 292f e8b7 9340 e9bf 0000 0000 0000 0000
00000440: b888 3759 70b1 ef3f 688b e4ed c983 d13f
00000450: 3b43 c72e f645 edbf c7a0 979d 9dd8 e0bf
00000460: c84d 7d38 4e9e e83f 024a 4b68 0fa6 e73f
00000470: 4e40 02b4 7415 e2bf 3f3f f8df 43a5 ecbf
00000480: 1401 beaa 4656 d43f a2f7 ab89 8f74 ef3f
00000490: 96e5 7ee1 0ba1 a7bf 56d3 5af7 06dd efbf
000004a0: a762 8139 7e4f cdbf 988f 083f b0d6 ed3f
000004b0: 0000 0000 0000 0000 9731 a5cd 4827 e63f
000004c0: 2336 0851 f5f8 ef3f 9f96 5aae 7afd e73f
000004d0: fe6d 8fbc c934 b53f 54f8 c84c 1b2a e4bf
000004e0: 5d1d 2e70 b2c0 efbf 4b0b df8a 75a9 e9bf
000004f0: d638 0548 2122 c5bf 338a b928 7209 e23f
00000500: 04d1 e1ae 8f50 ef3f 409f 0248 4828 eb3f
00000510: ec5b b29d ad84 cf3f 87b6 5b9d 1792 dfbf
00000520: 3427 bd5f 52a9 eebf 0000 0000 0000 0000
00000530: 3e28 f273 aaf1 ef3f ca54 06e3 df38 bebf
00000540: cd20 f914 4b7f efbf 802f b04e c502 ce3f
00000550: 88c0 16d7 259c ee3f 9852 f39c d33e d6bf
00000560: c5f5 3c00 684b edbf e155 afc6 9e2c dd3f
00000570: e993 663c c791 eb3f e04b b69e fad8 e1bf
00000580: 65a7 cbc0 7075 e9bf 8c71 500c bfdb e43f
00000590: 9f5b 832e f3fd e63f 0c70 0d03 d593 e7bf
000005a0: 0000 0000 0000 0000 7589 820d 22b6 ec3f
000005b0: 2e3f 91a4 025b e93f ab14 1764 4e47 c9bf
000005c0: 7b4f e897 bcef eebf a4b2 bc89 3500 e5bf
000005d0: 942f 9fe3 dac7 d83f dd59 bc86 62f1 ef3f
000005e0: b823 2138 48a3 df3f d412 d761 16f9 e1bf
000005f0: d692 ffca edb0 efbf d409 b843 1e07 d4bf
00000600: b66a 4320 03d9 e63f ed3d e359 e830 ee3f
00000610: 2ef4 a405 ff83 be3f 0000 0000 0000 0000
00000620: a39e d5e2 f894 e53f d5dc 6f23 8dde ef3f
00000630: 5ac7 707c 807a e93f 7212 86f5 1404 c73f
00000640: e142 53da 56fb e0bf 5c4a e63a 99d4 eebf
00000650: a595 8e2b 698b ecbf 0bb6 9ff5 0ba4 d6bf
00000660: f842 62b2 fba7 d73f 0d1c b2d0 5cc9 ec3f
00000670: 197f e9cb 1cae ee3f f4a5 746e 8e84 e03f
00000680: cb3a 19d5 bf27 c9bf 6d2a 7159 e6cd e9bf
00000690: 0000 0000 0000 0000 6abe 7a55 6a75 ef3f
000006a0: 5926 8253 490c d73f 8f94 a287 b63c ebbf
000006b0: a01e f6c0 6680 e5bf 8b29 9266 545c e33f
000006c0: a3bb 4594 0398 ec3f 7505 4cf0 b1c5 d1bf
000006d0: 1f0a ac36 57d9 efbf 83a3 0e43 343f b6bf
000006e0: 020c a54c 8ed4 ee3f cad2 2916 3c26 dc3f
000006f0: 54dc b89a a7ac e9bf 4935 324b d37a e7bf
00000700: 5d77 04d4 c112 e13f 0000 0000 0000 0000
00000710: b9e6 13c1 25e7 ef3f 409d 720f 87dd c33f
00000720: 3b50 ef2b 3b21 efbf 346e 4980 e89f d3bf
00000730: b679 3cd2 319a ed3f bedc 419f 4ed7 dc3f
00000740: 0285 2794 835b ebbf 381f 1770 e4ad e2bf
00000750: b9ed 0698 1d73 e83f 4db4 2a1c 407c e63f
00000760: 835e 37e5 09f3 e4bf 1f18 42b2 1dbf e9bf
00000770: 950a 377b fff0 e03f 5c55 a4ef 4162 ec3f
00000780: 0000 0000 0000 0000 2e6b d6b6 fa71 e53f
00000790: fab1 7941 79d5 ef3f a13b 08ca 51cf e93f
000007a0: 5738 fd84 70ea c93f fe86 dcf2 3b31 e0bf
000007b0: 4bd1 e44f e883 eebf 6caa b9e8 f81a edbf
000007c0: cc0d 6ac0 0861 d9bf da0d f150 9289 d43f
000007d0: 6be1 34f9 c1ee eb3f 326e bbfc fd31 ef3f
000007e0: a001 5a60 dd5f e23f e386 8bfa 955b bfbf
000007f0: 490c dd10 6931 e8bf 0000 0000 0000 0000
0.0 0.7745300037827 0.979838035560392 0.4650379551626404 -0.3915304500282733 -0.9603530819416558 -0.8233875940221961 -0.0812934374846669
0.7205453520174885 0.9928368751886828 0.5354671054285483 -0.3154311786657661 -0.9345109964965489 -0.8667947061221168 -0.16204874674501035 0.0
0.8196412070042728 0.9391075272166112 0.2563453833945439 -0.6453986738112099 -0.9958137598649888 -0.4955593326963997 0.4280244692086886 0.985970255709789
0.7016552990071661 -0.18204560285175303 -0.9102348512232084 -0.8608599917106128 -0.07609928032912776 0.7736689057059817 0.0 0.961870430689158
0.526153762556084 -0.674058504031244 -0.8948712184247084 0.18455405150330623 0.9958243255119712 0.3601728670044134 -0.7988057842421173 -0.797128464682389
0.36276769891216776 0.995566407701071 0.18181813570077116 -0.896109876813275 -0.6720001480651201 0.0 0.9343204655806103 0.666047348402137
-0.4595164912955759 -0.9936220423635698 -0.24880506539740802 0.8162568232746529 0.8306885976385506 -0.2240853380217578 -0.9904319091718581 -0.48196207416549786
0.6468564729548647 0.943085483616464 0.025439178076340756 -0.9249507025349571 0.0 0.8363470245402732 0.9169715101418857 0.16902123258252222
-0.7316565029265103 -0.9712099756613191 -0.33317884880629084 0.6059124338841162 0.9975016995007986 0.48774918374778803 -0.4627331256094418 -0.9950901325794088
-0.6282844482262502 0.30623858844272567 0.9640446681689291 0.0 0.8900955112699167 0.8113648646246739 -0.1504974173438087 -0.9485504981925904
-0.7141519790537368 0.29756662458594524 0.9853982678138454 0.6006712858889455 -0.4378575034930799 -0.9997994575833523 -0.47350778403272603 0.5681743406986316
0.9914260199829857 0.3355581557625741 0.0 0.7508784350472698 0.9918209691878853 0.5591989210281767 -0.25318580544387576 -0.8936272109072856
-0.9271892926356621 -0.33107939927075297 0.48987284387896196 0.978143073118665 0.8021376407794474 0.08138520092195398 -0.6946374848442426 -0.9989185742290204
-0.6248149620345088 0.0 0.9778845045173085 0.4090405474990386 -0.8067864160156395 -0.7465122589305629 0.49452685806464514 0.9533685245133677
-0.09574113088126095 -0.9934162033680182 -0.3197961905948036 0.8596482499085509 0.6793795454540269 -0.5754697196747243 -0.9200935031018772 0.19060264332722404
0.0 0.9978910447192969 -0.12954859473852134 -0.9810727372622473 0.2569137967023795 0.947719575604109 -0.37994901169444917 -0.8983936889777269
0.4965806224749227 0.83392640855023 -0.604842937198283 -0.7554042562910119 0.7029113188917244 0.6641506328918421 -0.7891329376156807 0.0
0.9904100172537005 0.27366874915803985 -0.9147902406349212 -0.5264423444723655 0.7693244078931736 0.7390210186952688 -0.565119124965358 -0.8951739668282029
0.3177658717541061 0.9829786003972354 -0.04615056159623092 -0.9957308608196438 -0.22898843582040238 0.932457087623777 0.0 0.6922954575070887
0.9991404135377632 0.7496922879551738 0.08283673146745937 -0.6301399707515523 -0.9922725859659455 -0.8019359314278999 -0.16510406509991665 0.5636530681043211
0.9785841384569101 0.8486672789049194 0.24623651695284765 -0.4932917629911135 -0.958169161787032 0.0 0.9982502235955122 -0.11805533688159922
-0.9842887315399139 0.23445955602835156 0.9565610123591037 -0.34758463217921465 -0.9154548649454958 0.4558484020502345 0.8615451984120429 -0.5577366924138651
-0.7955859914338644 0.6518244972717624 0.7184997471293747 -0.7367959079379047 0.0 0.8972330345025471 0.7923596586424304 -0.1974885929795723
-0.9667647330229409 -0.6562755289247275 0.38719818333333333 0.998215926318888 0.4943409488810704 -0.561656180471426 -0.9903477635203568 -0.3129344617192633
0.7139907484191415 0.9434701686495238 0.11920160186578307 0.0 0.6744350843773258 0.9959169094207946 0.7962038450698217 0.17981206882918205
-0.5306810630955533 -0.9634519720442074 -0.8920179224702919 -0.3537626169844265 0.3696278802899964 0.8995803905571634 0.9587539656313054 0.516181197866159
-0.19652555375292588 -0.806384253207694 0.0 0.9830829305191859 0.3601249042045303 -0.8511612557528155 -0.6719239968087614 0.6050207141245648
0.8935563941903307 -0.2776913496637328 -0.9952808444798541 -0.08690191876543278 0.9634467598883705 0.43983366169349536 -0.8023260137478112 -0.7337433308290794
0.5335396901098012 0.0 0.996966244797668 0.15519798521311579 -0.9728065355398096 -0.30663502243052965 0.92507258474125 0.45064130356281484
-0.8549211400642494 -0.5837270917190613 0.7640521973875628 0.7026672887929039 -0.6546678044205269 -0.8045795899968232 0.5294186979811736 0.886994331408157
0.0 0.6701634951635691 0.9948087958160265 0.806557554811537 0.20246702664957425 -0.5060100310695075 -0.9536019859720367 -0.9095425172248048
-0.39654749670463896 0.32089670090155453 0.8728952281299319 0.974852555863839 0.5742022401682796 -0.12249123923131892 -0.7560315446247695 0.0

D0 f8 [15, 4]
00000000: 5725 0080 7bca d53b 2dd9 0910 1d4c f3bb
00000010: 498e fca6 dca0 143c ee59 9d50 7400 113c
00000020: 9895 fbb5 d9d1 d13f 8fa0 40d1 b667 a23f
00000030: 6884 b88c ebd6 cf3f 4b68 a708 7574 d63f
00000040: 6c90 dbfa f307 d13f fb21 abc0 f3e2 b4bf
00000050: 425e 24b0 c5d3 d93f 044e cabf c0d8 a6bf
00000060: 8f52 620b b7d3 a8bf 3b79 7bca af4a c2bf
00000070: 0bed 95f6 4bf0 d33f bb81 ce25 98bf d5bf
00000080: 326a 8183 8d4b d6bf bfae e192 c449 953f
00000090: 4886 1e50 996a a8bf 7061 ad42 9753 ba3f
000000a0: 4b4a 57be b956 d2bf f068 29df 61fd c23f
000000b0: faeb 0b1a c500 dabf 41a7 2caf 32e8 d53f
000000c0: 1ec4 da8a 41e4 bb3f 140a fafb 3113 37bf
000000d0: c1aa 8fb2 0535 dcbf 5328 7918 8bdd c2bf
000000e0: 4641 4f58 6195 da3f ca93 1fc0 6b3c c3bf
000000f0: 6847 693c 4eed c1bf d353 860d b5c9 d5bf
00000100: 3847 a3a5 706d d23f 7f3f 1df7 2ea1 a63f
00000110: 5b28 985c 2b09 ca3f 12df 584d afd3 c63f
00000120: 620c 41d0 4bbf c0bf c163 2807 1523 d53f
00000130: 3412 6601 5bcc d53f 5ecc 5f91 314e d43f
00000140: 429c d86c ad1f d9bf a5e5 7639 7e69 c63f
00000150: ce4b cfda 808a d03f 38da d9ac 8454 ccbf
00000160: 57f8 5a3a 4d1b d1bf 7dac eada 6e02 d7bf
00000170: ca81 0785 1c06 b23f 1a53 ebb7 5c05 d3bf
00000180: 9285 e5e3 8cf5 ad3f e47a a634 dac3 e2bf
00000190: c617 559c da5b bbbf d91f 3b31 668d d03f
000001a0: 4983 f877 ef4a d13f 2295 0fcb 5534 bfbf
000001b0: 44e6 3716 102c c7bf 0bb2 2c34 d53b d13f
000001c0: f974 56c9 4f35 cf3f 25cc 4c3b e66f e13f
000001d0: 193e 37f0 4fb1 c3bf 09eb 7bc9 8ba5 d2bf
1.8457650027400205e-20 -6.53818581199948e-20 2.7956650241826723e-19 2.304170150109322e-19 0.2784332539725596 0.03594752601958461 0.2487463414300095 0.35085798115836003
0.26611041543788505 -0.08158801511593332 0.40355055047391286 -0.044622443591972455 -0.04849025739637113 -0.1429042566950985 0.3115415485442134 -0.3398189896779759
-0.348361376212469 0.020789214577617395 -0.047688284902744515 0.10283799531805982 -0.2865433081434829 0.1483576144845027 -0.40629699271784114 0.3422972403228535
0.10895166053775582 -0.0003520962745612599 -0.4407362216722213 -0.1473859662531277 0.41536744712813733 -0.15028139954588787 -0.14005449247138846 -0.3404362327649412
0.2879296891743368 0.04419848219424604 0.20340482732018725 0.1783351066276216 -0.13083789509446137 0.3302662439251059 0.34059786926835334 0.3172725600881615
-0.3925584376287966 0.17509439283257425 0.25845357292308513 -0.22132929267873336 -0.26729136179699736 -0.3595235002382607 0.07040575263773188 -0.29720228157866446
0.058514025515942994 -0.5864077595068378 -0.10687033001622046 0.25863032157621785 0.27019869533437607 -0.12189232070484882 -0.1810321911323617 0.2692769059674737
0.2438144429296825 0.5449095876887254 -0.1538486407211941 -0.29135412861039406

X0 f8 [4, 100]
00000000: ab6c 7bab dfe7 dd3f 0bf6 4c92 1b03 fd3f
00000010: 9495 e1e2 c0d5 b03f a706 a340 9769 f13f
00000020: 9372 09b8 f5e3 0140 1881 8a41 5069 0440
00000030: 42ef 6b17 98d8 bdbf b8d8 e695 8e86 c6bf
00000040: 0000 0000 0000 0000 bd5a 1110 7232 bbbf
00000050: ccff cc53 2fd4 e1bf ac4f b725 e286 753f
00000060: 4b71 0010 285a 0340 1aa3 3168 9ec1 dbbf
00000070: b003 51cb c441 c6bf 2f92 7a0d 3dc3 6d3f
00000080: 28f4 3faa ba40 d7bf 2fd8 e956 7f49 f33f
00000090: 8130 e56f ed42 fe3f b2f5 d962 a633 ec3f
000000a0: eb9a 8730 0005 d0bf 46a8 9e38 a3d6 0140
000000b0: 0000 0000 0000 0000 36da f0a3 02ca 0440
000000c0: f02e 64e3 8d4d e1bf 38e9 7f6b 08e5 d83f
000000d0: 0000 0000 0000 0000 c470 1ced 78d4 b23f
000000e0: 47df 3c3e dd0f e2bf ccf4 8825 0b63 543f
000000f0: 0000 0000 0000 0000 d34a 0596 53f3 9f3f
00000100: ea4e e75f 0739 d2bf ad45 a9e4 c0df bebf
00000110: 885b 2078 57a3 f53f bd80 c4c8 029a c6bf
00000120: 2771 d450 127b ddbf 6726 0252 426f e63f
00000130: 6185 4669 e686 e2bf 617d 9adc e5e4 0240
00000140: 0f04 df88 622e 0540 c916 a4fd 4e06 e33f
00000150: f7fa 88c3 41b7 0340 8bf5 7b54 68c0 f23f
00000160: 0e76 dbf4 cef7 b1bf 9181 3148 c9d7 b03f
00000170: 4e94 214d 4396 e93f 0000 0000 0000 0000
00000180: b479 b5ae a6ba d9bf 83c1 c64f 5da3 a03f
00000190: 0000 0000 0000 0000 0000 0000 0000 0000
000001a0: 0000 0000 0000 0000 0000 0000 0000 0000
000001b0: 0000 0000 0000 0000 0000 0000 0000 0000
000001c0: 0000 0000 0000 0000 0000 0000 0000 0000
000001d0: 0000 0000 0000 0000 0000 0000 0000 0000
000001e0: 0000 0000 0000 0000 0000 0000 0000 0000
000001f0: 0000 0000 0000 0000 0000 0000 0000 0000
00000200: 0000 0000 0000 0000 0000 0000 0000 0000
00000210: 0000 0000 0000 0000 0000 0000 0000 0000
00000220: 0000 0000 0000 0000 0000 0000 0000 0000
00000230: 0000 0000 0000 0000 0000 0000 0000 0000
00000240: 0000 0000 0000 0000 0000 0000 0000 0000
00000250: 0000 0000 0000 0000 0000 0000 0000 0000
00000260: 0000 0000 0000 0000 0000 0000 0000 0000
00000270: 0000 0000 0000 0000 0000 0000 0000 0000
00000280: 0000 0000 0000 0000 0000 0000 0000 0000
00000290: 0000 0000 0000 0000 0000 0000 0000 0000
000002a0: 0000 0000 0000 0000 0000 0000 0000 0000
000002b0: 0000 0000 0000 0000 0000 0000 0000 0000
000002c0: 0000 0000 0000 0000 0000 0000 0000 0000
000002d0: 0000 0000 0000 0000 0000 0000 0000 0000
000002e0: 0000 0000 0000 0000 0000 0000 0000 0000
000002f0: 0000 0000 0000 0000 0000 0000 0000 0000
00000300: 0000 0000 0000 0000 0000 0000 0000 0000
00000310: 0000 0000 0000 0000 0000 0000 0000 0000
00000320: 456c feba fbd6 e83f 5ad8 770c a375 f33f
00000330: d038 03a7 2f32 e5bf 24c2 3ea7 8893 fbbf
00000340: 19b3 d38b 202c f13f 0b2b bbf3 b348 e2bf
00000350: 10a7 73b6 6b22 d33f 3a8a c834 0912 e83f
00000360: be78 76fc 50e6 553f 46af 1016 da5f fc3f
00000370: d510 85d8 9150 e2bf 3a5d ff39 f10c b13f
00000380: 293d 5024 3d5a ebbf 6482 79f3 23a9 e4bf
00000390: 3561 8b10 70e2 f33f 3dc5 d50f e1ad fb3f
000003a0: ffbc bb1c 0076 e4bf 4a2a 170b 963a f23f
000003b0: 7303 a741 0c4d f33f ee07 7557 c6dd fabf
000003c0: fed4 7152 b4c3 e3bf fce7 2aa3 27d4 f1bf
000003d0: 6eb5 a151 a084 cb3f 2ac0 5ee0 f1c3 e33f
000003e0: f4ed d98d 1c17 e3bf 2799 eb08 aa36 f4bf
000003f0: e4d6 b208 6e55 e1bf cb6b e5d8 3d00 df3f
00000400: a996 8778 d28d d7bf 5c4b 7de6 25d8 fb3f
00000410: da75 3529 72b8 d53f 098c bea0 894d f73f
00000420: 9952 5daf 4c6e bb3f 921e 9cc3 db6e fb3f
00000430: 3d10 3bd7 8941 fbbf 00ed 6240 162e e3bf
00000440: 564b b576 1a88 e4bf 1b64 6938 ee5d ed3f
00000450: bc9c 788d 5cb2 dfbf 1606 6c67 bf2b eebf
00000460: b2fc 52ca e082 c8bf f5f7 d209 c863 eb3f
00000470: 06c0 a267 08b0 e8bf b1c4 842d d80e f23f
00000480: 6167 1702 0f96 fd3f 9efc 91dc 5977 e0bf
00000490: 2455 68dd 1943 fabf 5e45 1e0c 2633 d53f
000004a0: 1add 928a 39e3 a8bf e7ad f230 ff68 f63f
000004b0: 0000 0000 0000 0000 0000 0000 0000 0000
000004c0: 0000 0000 0000 0000 0000 0000 0000 0000
000004d0: 0000 0000 0000 0000 0000 0000 0000 0000
000004e0: 0000 0000 0000 0000 0000 0000 0000 0000
000004f0: 0000 0000 0000 0000 0000 0000 0000 0000
00000500: 0000 0000 0000 0000 0000 0000 0000 0000
00000510: 0000 0000 0000 0000 0000 0000 0000 0000
00000520: 0000 0000 0000 0000 0000 0000 0000 0000
00000530: 0000 0000 0000 0000 0000 0000 0000 0000
00000540: 0000 0000 0000 0000 0000 0000 0000 0000
00000550: 0000 0000 0000 0000 0000 0000 0000 0000
00000560: 0000 0000 0000 0000 0000 0000 0000 0000
00000570: 0000 0000 0000 0000 0000 0000 0000 0000
00000580: 0000 0000 0000 0000 0000 0000 0000 0000
00000590: 0000 0000 0000 0000 0000 0000 0000 0000
000005a0: 0000 0000 0000 0000 0000 0000 0000 0000
000005b0: 0000 0000 0000 0000 0000 0000 0000 0000
000005c0: 0000 0000 0000 0000 0000 0000 0000 0000
000005d0: 0000 0000 0000 0000 0000 0000 0000 0000
000005e0: 0000 0000 0000 0000 0000 0000 0000 0000
000005f0: 0000 0000 0000 0000 0000 0000 0000 0000
00000600: 0000 0000 0000 0000 0000 0000 0000 0000
00000610: 0000 0000 0000 0000 0000 0000 0000 0000
00000620: 0000 0000 0000 0000 0000 0000 0000 0000
00000630: 0000 0000 0000 0000 0000 0000 0000 0000
00000640: 15e4 623c 1876 fc3f bc1d 25fe 3616 f43f
00000650: 93ab 49b3 d718 83bf da84 6eb9 9491 a9bf
00000660: a8ab f4df 9a4e f03f f5dd 2bcb 765c b63f
00000670: cb0d 15a6 bc9f ff3f 0000 0000 0000 0000
00000680: 49c1 e9f7 f25e 933f 0000 0000 0000 0000
00000690: f47b b74c f4d5 fb3f 0000 0000 0000 0000
000006a0: 0000 0000 0000 0000 3e86 0082 91e9 f83f
000006b0: 0000 0000 0000 0000 f2a0 2fc5 e8d4 b0bf
000006c0: 3d04 618e 5ade f63f 38b4 a0cc b328 f83f
000006d0: d777 c93c c47b f33f e664 0c1a f271 a5bf
000006e0: f5d4 eb75 6f79 f33f 0000 0000 0000 0000
000006f0: 0000 0000 0000 0000 9f8d 903e 261b e53f
00000700: 51f2 cb28 b54f fb3f e93b 2a92 5ca7 acbf
00000710: ca62 03a0 2879 ea3f d6e2 b480 5904 ff3f
00000720: a23a 5cf8 914f fe3f c123 2120 9e1f b0bf
00000730: b1bf d99f 9750 44bf e7e3 f366 def5 b7bf
00000740: 4072 f694 5c91 ff3f 0000 0000 0000 0000
00000750: 8343 141f 35ea b4bf 0ca4 d142 bd70 f13f
00000760: 4453 7d26 b675 f93f 4449 7ca6 7810 fb3f
00000770: 9cac 54eb b514 fd3f 0000 0000 0000 0000
00000780: 9990 e832 1bc8 d13f d211 2a3f f8ae fb3f
00000790: bcb2 8454 77ec 913f 336e e5f2 325d f83f
000007a0: 0000 0000 0000 0000 90c1 694a f0b4 e73f
000007b0: 5a7f 8631 b191 a8bf 0000 0000 0000 0000
000007c0: 7c89 3594 5c27 ff3f 72a5 a86f 8102 b8bf
000007d0: 0000 0000 0000 0000 0000 0000 0000 0000
000007e0: 0000 0000 0000 0000 0000 0000 0000 0000
000007f0: 0000 0000 0000 0000 0000 0000 0000 0000
0.46727744814206557 1.813258716093858 0.06576161898700256 1.0882790112376968 2.236308515346829 2.5514226074593687 -0.11658621379677661 -0.17598135299130546
0.0 -0.10623848812370347 -0.5571514736875485 0.00525558794784679 2.419021725667482 -0.4336925523298746 -0.17388210227548262 0.0036331360277748396
-0.3633257544132129 1.2054437060410341 1.8913397189053571 0.8813049250308522 -0.25030522097806224 2.2298035071771976 0.0 2.59863784865163
-0.5407170716511853 0.38897905824673584 0.0 0.07355457104535207 -0.5644365516263655 0.0012443169454308565 0.0 0.031201654464278427
-0.28473076215344284 -0.12060170729207327 1.3523783390462274 -0.17657503893952323 -0.4606366910318393 0.701081428692487 -0.5789672905122353 2.361766551460889
2.6476488774355924 0.5945200876164672 2.4644809032610016 1.1719744968571344 -0.07018750646553704 0.06579263699086925 0.7995926386325978 0.0
-0.4020172792569625 0.03249637221176995 0.0 0.0 0.0 0.0 0.0 0.0
0.0 0.0 0.0 0.0 0.0 0.0 0.0 0.0
0.0 0.0 0.0 0.0 0.0 0.0 0.0 0.0
0.0 0.0 0.0 0.0 0.0 0.0 0.0 0.0
0.0 0.0 0.0 0.0 0.0 0.0 0.0 0.0
0.0 0.0 0.0 0.0 0.0 0.0 0.0 0.0
0.0 0.0 0.0 0.0 0.7762430813048772 1.2162199484860339 -0.662376238056618 -1.7235189946187655
1.0732732259741111 -0.571374870335917 0.2989758760219141 0.7522016554760917 0.0013366499787035714 1.773401342575157 -0.5723351696874724 0.06660373369173991
-0.8547654828306906 -0.6456470256199052 1.242782654406324 1.7299509638363155 -0.6394043503950398 1.1393032487127521 1.2063105167910322 -1.6791442314429292
-0.6176396951911156 -1.1142956136450257 0.21498493181153883 0.617669046614542 -0.5965712328465416 -1.2633457516145172 -0.5416784448522916 0.4843897455336303
-0.36803113718483843 1.7402705195897488 0.3393826868467308 1.4564300803256194 0.10715178758011702 1.7145650521287377 -1.7035005958032479 -0.5993758447215498
-0.6416141813773304 0.9177161313811014 -0.49526132407704515 -0.9428402919731436 -0.19149408225164205 0.8559303466679454 -0.7714883827338788 1.1286241319724406
1.8491354066558972 -0.5145692165387066 -1.641382088540305 0.3312468641607519 -0.04860858742307013 1.4006339942960666 0.0 0.0
0.0 0.0 0.0 0.0 0.0 0.0 0.0 0.0
0.0 0.0 0.0 0.0 0.0 0.0 0.0 0.0
0.0 0.0 0.0 0.0 0.0 0.0 0.0 0.0
0.0 0.0 0.0 0.0 0.0 0.0 0.0 0.0
0.0 0.0 0.0 0.0 0.0 0.0 0.0 0.0
0.0 0.0 0.0 0.0 0.0 0.0 0.0 0.0
1.7788317068900643 1.2554235389269328 -0.009324727209976824 -0.04993881953783737 1.019190668894888 0.08734838924635098 1.9764982688510482 0.0
0.018916889554419645 0.0 1.7397349354503122 0.0 0.0 1.5570235326962485 0.0 -0.06574873746979273
1.4292855798414756 1.5099370950004083 1.2177164434901806 -0.04188496177648364 1.2171473127648913 0.0 0.0 0.659564134785274
1.7069598764056944 -0.055964367716221215 0.8272898793466876 1.9385619189835572 1.894426317364982 -0.06298244747553296 -0.0006199589112849594 -0.09359540952199517
1.972988683591339 0.0 -0.08169872292297779 1.0900242433656357 1.5912381652353398 1.6915213111247605 1.8175563042266623 0.0
0.2778385159638304 1.730217215285951 0.017503609212485158 1.5227536666997252 0.0 0.7408372357731867 -0.04798654298360701 0.0
1.9471097745341401 -0.09378823257488536 0.0 0.0 0.0 0.0 0.0 0.0

t_train f8 []
00000000: 0000 00c0 950d 0d40
3.6316332817077637
